TME/auto_encodeur_tme3/save_net/auto_encoder.model (torch_old, 760747 bytes, 3 tensors)

linear_encode.weight f8 [120, 784]
0.012662939727306366 -0.023922741413116455 0.0067497193813323975 0.023571018129587173 0.00891270861029625 0.03405585512518883 0.007394779473543167 0.0011939145624637604
0.028408903628587723 -0.020828763023018837 0.030239667743444443 -0.03414752706885338 -0.15638364641918587 -0.06858139635101441 0.12743481772762097 0.012567030414008614
0.011157218366861343 0.016691293567419052 -0.005177715793251991 0.02913937345147133 0.012746158987283707 -0.03234734758734703 -0.010408585891127586 0.016411755234003067
0.023151103407144547 -0.02249927818775177 0.031200971454381943 -0.012449558824300766 0.007768686860799789 -0.006001196801662445 0.02961161360144615 0.0222209133207798
0.004633986841035981 0.04753153179939742 -0.22920385758330958 -0.11787364730438338 0.12198891498807686 0.2379125967088051 -0.055037764270931384 -0.10063594389284229
-0.3761217464870791 -0.505665754648039 -0.06068171560039745 0.20763177900745314 0.4260592839413053 -0.1543568605119216 -0.4660901311568845 0.18488080635294138
0.46319503528233047 0.15231087714159536 0.1473690601374787 0.2904840885471796 0.006879348307847977 0.008858714252710342 0.016382906585931778 0.0038061030209064484
0.006001017987728119 -0.0063329897820949554 0.07035195871828391 -0.009124913924403809 0.11021168093350663 -0.3089460836900233 -0.45583583021271784 -0.6870429309108032
-0.2521147440923141 -0.24506115979037726 -0.16604398609083088 0.005032979870234761 -0.24353129210493532 -0.12643656381446472 -0.1318816236685948 -0.13915308418932254
-0.09116841623967747 -0.5375419031378997 -0.40996925008673235 0.15103546753075411 0.28155905081659294 0.11065149654619981 -0.012340125753732636 0.07994089475246298
0.279190374570511 0.14298506551109064 -0.009454621002078056 0.0013348571956157684 0.0018907226622104645 0.03384837135672569 0.3018822686281464 -0.22155068305988476
0.11253125291433815 0.26434202202718365 0.18448631892107617 0.2577044250387019 0.271013295263386 -0.024579848545209875 -0.018415470493103835 -0.21424428540798202
0.006786317514047462 0.21528095684263973 0.02459294272392922 0.022416877510316468 -0.07439720474996758 0.11758143290731052 0.06018111608598527 -0.1050133028204183
0.24377421200387211 -0.06596482297693874 -0.060807656622973154 -0.15350714749867067 -0.15605636942182363 -0.02054170543871522 -0.05639076922812036 -0.01740264520049095
-0.012857118621468544 -0.002924548833250697 0.5304840984892082 -0.04249996283535321 0.06555819510186311 -0.17218294572561044 0.14120936954718175 0.17209801810769204
-0.29850710144518766 -0.19246543778916966 -0.05984480566162757 -0.1375802027186386 -0.2238427284850763 -0.016071105478931855 -0.15563713652119643 -0.1077178334402528
-0.07237246501426808 -0.034457967342581414 0.11397797446786742 0.02635750434801976 -0.15696130184607557 -0.15368009005823516 0.01333934505588297 -0.11524416449811574
0.004332376267054206 -0.25630205833743885 -0.3495819712924266 0.025727337580389236 0.033227454870939255 -0.03223945200443268 0.41171592270533763 0.06521595355919443
-0.10705711582557102 -0.1963538981120957 0.17559965274326964 0.10088326997565604 -0.30982383111117745 -0.23199742763035971 -0.030058040343609437 0.0975811770475383
0.38809012687615435 0.29632852249131914 0.07184567029655063 0.09228010795627882 0.0011764433480272519 0.013258169031249779 0.1391812852838999 0.17346996899924058
-0.29480145725902696 -0.32905916331006824 -0.13330836745038777 -0.06816177305555166 -0.031603936506744756 0.06860106161928788 -0.07233554271741521 0.11262747345368701
0.03285077586770058 -0.0027828685205210668 0.24501945626858515 0.3111704241023721 -0.011372946283288745 0.050707651773499174 0.28343945755593775 0.20819645081149635
-0.17538100064389323 -0.024778268572684666 0.06984212884116497 0.11793183325178863 0.20382742786995156 -0.12921836602313166 -0.32101424019659586 -0.1935880899200396
-0.05533886329982497 0.15975791554349222 0.5223087722921341 0.3072288245783893 0.10162599645258354 0.18955518934494306 -0.09343978186799869 -0.16789462810427258
-0.38972738463541223 -0.05090927906704688 0.16612953255656182 0.08228247407716485 -0.0002965056230416208 0.030072779057024483 0.11351174067324978 -0.12767194852539868
-0.2526070064928384 -0.09316963051717213 0.09123829834265514 0.03567324150290762 0.01708697158690301 -0.08642288817340057 0.06847713527448462 0.08935800145086688
-0.029697513029774504 -0.04584041997585288 0.0312749369884231 0.08380843497938069 -0.06929997103861443 -0.010336837132725537 0.32156731647820624 0.22664218791484372
-0.0227213348137725 0.09072749200029853 -0.14632255513160103 0.08509016323807019 -0.049457174384815415 -0.34595297247121665 0.10794196995310625 -0.09441448652012088
0.07910064285240702 0.0015642952325133244 -0.037761142406914285 -0.0821969792330033 0.01521498536093539 0.019455137166284105 0.21718285730488446 0.2935553147623131
0.14785516822634634 -0.09702555732632277 0.1699625651504071 0.02382970421001904 0.03461274874137438 0.20401088497300535 0.2295917585782872 0.2913451770762304
0.021691761584734227 -0.27314270794607387 0.031375358736655756 0.18805808761419177 0.22657520247513324 0.11160268928909045 -0.11683758388501989 0.16932038876716918
-0.04823052132240601 -0.20390960560299573 0.09842875106167624 -0.15860857226325056 0.06219231740741595 0.032560981276588574 0.19147697702156008 -0.07808299132032366
00000000: 0000 0000 07ef 893f 0000 0000 347f 98bf
00000010: 0000 0000 98a5 7b3f 0000 0040 0023 983f
00000020: 0000 0080 d340 823f 0000 00e0 c46f a13f
00000030: 0000 0000 fd49 7e3f 0000 0000 a48f 533f
00000040: 0000 0040 3917 9d3f 0000 00a0 2254 95bf
00000050: 0000 00c0 25f7 9e3f 0000 00e0 c87b a1bf
00000060: e7f3 7f1b 6104 c4bf 0d0e 71e6 8c8e b1bf
00000070: 6784 41bb c84f c03f 7189 1645 bebc 893f
00000080: 0000 0080 98d9 863f 0000 00c0 8517 913f
00000090: 0000 0080 3a35 75bf 0000 0040 b6d6 9d3f
000000a0: 0000 0080 a81a 8a3f 0000 00e0 d48f a0bf
000000b0: 0000 00c0 1851 85bf 0000 0040 3ece 903f
000000c0: 0000 0040 ecb4 973f 0000 0000 0d0a 97bf
000000d0: 0000 00c0 25f3 9f3f 0000 0080 277f 89bf
000000e0: 0000 0000 0fd2 7f3f 0000 0000 b694 78bf
000000f0: 0000 00c0 8152 9e3f 0000 0040 14c1 963f
00000100: 6de1 ea5e 16fb 723f 63e2 368d 0d56 a83f
00000110: 4afb 3750 8d56 cdbf 6489 3ba4 f72c bebf
00000120: 212b 5960 aa3a bf3f 4edb 1583 eb73 ce3f
00000130: f95d 2deb e82d acbf ab64 d2f7 46c3 b9bf
00000140: 767d 1ef2 6012 d8bf a274 ddf2 692e e0bf
00000150: 0c11 f07f ac11 afbf 7941 399a ad93 ca3f
00000160: 6cd8 ab28 8e44 db3f 8eed e731 f7c1 c3bf
00000170: aba8 93b3 6bd4 ddbf bdd4 789c 2caa c73f
00000180: 5d42 0dca fca4 dd3f 12f9 123e ec7e c33f
00000190: 0aca dd46 fddc c23f 6162 1493 4a97 d23f
000001a0: 0000 0000 852d 7c3f 0000 0080 8424 823f
000001b0: 0000 0040 aec6 903f 0000 0000 fa2d 6f3f
000001c0: 0000 0000 8694 783f 0000 0000 9ff0 79bf
000001d0: ff91 e701 9602 b23f 6cb2 1237 15b0 82bf
000001e0: 0721 3f2d d536 bc3f 6c42 6bcb c5c5 d3bf
000001f0: d3f3 c60b 6a2c ddbf 65b7 e674 41fc e5bf
00000200: 47d1 2de1 a522 d0bf 65e5 6801 2a5e cfbf
00000210: 8e92 fae8 ed40 c5bf 7af8 1a3f 769d 743f
00000220: 5158 928b 082c cfbf ea05 4dc5 122f c0bf
00000230: 9ccc 4c3e 7fe1 c0bf c286 ddac c4cf c1bf
00000240: 9c72 2d36 d056 b7bf c19e c613 8b33 e1bf
00000250: 063e 5faa ef3c dabf 0753 ca54 2155 c33f
00000260: ba9a c940 1005 d23f d35c eb0e a853 bc3f
00000270: ae93 53a4 c745 89bf 8526 93a8 0177 b43f
00000280: 7ada 084e 41de d13f eee0 17aa 554d c23f
00000290: 0000 00c0 f15c 83bf 0000 0000 ccde 553f
000002a0: 0000 0000 44fa 5e3f 0000 00e0 9254 a13f
000002b0: e002 c001 0a52 d33f 7f07 13d5 c55b ccbf
000002c0: 4584 0b23 d9ce bc3f 4f2d e4cc faea d03f
000002d0: 49a8 2969 3f9d c73f 67d8 64b3 3a7e d03f
000002e0: eefe fb25 4858 d13f 9bb9 91b6 752b 99bf
000002f0: b388 084e 81db 92bf 7051 9753 5b6c cbbf
00000300: 059a 873c f8cb 7b3f e19c 8b8e 538e cb3f
00000310: e6c1 d872 e42e 993f d317 242f 73f4 963f
00000320: 089f 50f9 b10b b3bf ca26 f418 d119 be3f
00000330: fa27 da2a 0fd0 ae3f 4f36 42dd 26e2 babf
00000340: 3618 154e fe33 cf3f 6154 5f15 12e3 b0bf
00000350: df89 1561 2e22 afbf c8c1 1a49 1fa6 c3bf
00000360: abe6 7fb5 a7f9 c3bf 17de 4084 e208 95bf
00000370: 501a 433b 40df acbf 0000 00c0 ffd1 91bf
00000380: 0000 0040 d554 8abf 510d 0533 39f5 67bf
00000390: e7e4 c1c9 b9f9 e03f 9509 eb1c 8ec2 a5bf
000003a0: 9081 f2ff 6bc8 b03f 2c04 693c 170a c6bf
000003b0: b305 0c0c 2613 c23f 564e bdcf 4e07 c63f
000003c0: 682c 9587 bd1a d3bf 5f18 751c b5a2 c8bf
000003d0: b6e8 4d76 faa3 aebf 1176 a063 3a9c c1bf
000003e0: 4639 25e7 e0a6 ccbf 5c33 c5a1 f174 90bf
000003f0: 7a68 b3ed eaeb c3bf 7b65 d25b 6593 bbbf
00000400: e0ff 5d7a 0087 b2bf 4c63 a585 79a4 a1bf
00000410: bac6 cd18 a92d bd3f 8137 b72c 76fd 9a3f
00000420: 2f4f 15d5 4e17 c4bf a158 6c08 caab c3bf
00000430: 82e0 1e96 a851 8b3f 2302 933d a480 bdbf
00000440: 1a6e 1866 d3be 713f f33b 9dbf 4067 d0bf
00000450: 3f38 7e0f 8d5f d6bf fb6c 1566 4458 9a3f
00000460: 0000 0060 3003 a13f 0000 0080 b081 a0bf
00000470: cac2 d0bd 8d59 da3f 7ad5 b623 feb1 b03f
00000480: 9b60 465b 1868 bbbf 54b2 6ae1 1f22 c9bf
00000490: 8d53 dca6 0c7a c63f 9b4c 4269 7cd3 b93f
000004a0: 3936 8955 27d4 d3bf cdd9 367a 17b2 cdbf
000004b0: b3d5 07f1 88c7 9ebf 3ed6 1f7c 14fb b83f
000004c0: 4559 b5f8 77d6 d83f ca38 3ee8 0bf7 d23f
000004d0: 0f6b 4854 7a64 b23f 675a be4d ab9f b73f
000004e0: 1fd8 246d 5c46 533f c707 2753 1927 8b3f
000004f0: 723a 413e b1d0 c13f bb4d d891 4334 c63f
00000500: 0467 6fee 06de d2bf 5a6a 372a 4e0f d5bf
00000510: bcc4 3da3 3f10 c1bf 6c68 1cca 0c73 b1bf
00000520: 1052 7123 642e a0bf 552f 20d4 d68f b13f
00000530: 1c49 4f06 9584 b2bf 945c 1d73 27d5 bc3f
00000540: 0000 0020 d1d1 a03f 854f 1c29 19cc 66bf
00000550: cd54 c72b cc5c cf3f 0923 c05a 37ea d33f
00000560: ee61 c402 b34a 87bf 785b 0c74 5af6 a93f
00000570: a351 2640 df23 d23f 9677 b069 2ea6 ca3f
00000580: b279 0d77 e272 c6bf 2f4b af74 795f 99bf
00000590: 8c7d 417b 2ce1 b13f 2c48 f9d6 c730 be3f
000005a0: c457 5d64 0417 ca3f 0153 0e38 3a8a c0bf
000005b0: 7075 cc4f 7f8b d4bf c303 8d99 7ec7 c8bf
000005c0: d220 2420 6055 acbf b6a9 4487 f272 c43f
000005d0: 7913 ede2 c0b6 e03f 16f9 7c16 a3a9 d33f
000005e0: 29f0 2f4b 2904 ba3f eb05 832d 5843 c83f
000005f0: b5b7 4467 abeb b7bf 30e3 7038 927d c5bf
00000600: 6257 d720 4bf1 d8bf 9dd2 4ff1 c710 aabf
00000610: 3477 9d86 bb43 c53f 2205 32d7 7610 b53f
00000620: 0138 3cf4 896e 33bf aef2 320a 66cb 9e3f
00000630: 0155 e7fd 1a0f bd3f 553f c4ed 8d57 c0bf
00000640: 0e24 e893 b62a d0bf 7339 0d04 f7d9 b7bf
00000650: bd3e 86a3 645b b73f 0fd1 315b c343 a23f
00000660: aa1c 9d40 3f7f 913f 8ea3 5476 cf1f b6bf
00000670: 0016 87b0 b787 b13f 850d de7d 2ae0 b63f
00000680: ba10 f15c 0669 9ebf c22b 4341 6578 a7bf
00000690: 4077 19bf 4403 a03f b589 5d37 7874 b53f
000006a0: 227f 3995 a4bd b1bf 1ede 6ecb 7a2b 85bf
000006b0: d020 ef14 8f94 d43f 617b 7e78 9c02 cd3f
000006c0: 8756 c9f7 4244 97bf 4248 fdba ea39 b73f
000006d0: 8a8b 7a8e b2ba c2bf b99d 510c 78c8 b53f
000006e0: 8b19 1265 7352 a9bf 7bf1 adef 1724 d6bf
000006f0: e97c d0be 15a2 bb3f 925f df3b 8c2b b8bf
00000700: 2fc7 2492 f03f b43f ce11 5b37 21a1 593f
00000710: ed03 65af 6d55 a3bf e1bf a279 dc0a b5bf
00000720: 1652 46c4 0829 8f3f bf39 7927 0cec 933f
00000730: 0a2b b0da a5cc cb3f d826 1e3b 9cc9 d23f
00000740: 7bd2 090c ebec c23f 1fbd 97bb aad6 b8bf
00000750: 19c1 6e55 55c1 c53f b983 0561 d066 983f
00000760: 48dc bc1f c3b8 a13f 8058 7e57 071d ca3f
00000770: f92e 4343 4363 cd3f 7af1 d83d 66a5 d23f
00000780: ad70 657a 5d36 963f aa3b 718d 2b7b d1bf
00000790: 5031 5957 6e10 a03f 918f 0694 4912 c83f
000007a0: 268e 5b8e 6a00 cd3f 506d a46c fe91 bc3f
000007b0: 4ad5 ba61 11e9 bdbf 1587 265e 4aac c53f
000007c0: 0f5e 7fbf abb1 a8bf 23db b3bf b519 cabf
000007d0: 47c8 cb6a a032 b93f 6d32 5e23 494d c4bf
000007e0: 4394 a7e2 abd7 af3f c0cf 6a3b d5ab a03f
000007f0: 384d 1f4d 5182 c83f 753a 1836 3ffd b3bf

linear_encode.bias f8 [120]
0.9776364950317963 1.2618579070929725 1.4772158958542547 -0.34150597098801166 0.9032607611687212 -0.4221931033320405 0.8232075446711052 1.661264630850503
1.1258171111480724 1.0281939725491254 0.08846872565640487 1.6297644409489838 -0.3830403335114663 0.19712214599264896 2.125717865119286 1.4143088335792626
0.8079572488478024 -0.24561591700279517 1.5293683371491495 -0.023587138594932274 0.9962104036764761 -0.05531239811856943 0.8661395796015263 1.3474348084290917
1.0472542323210117 1.902393529372439 0.9093638806604445 -0.17313466415292653 2.559645633350283 1.6472564229029814 1.608639993654219 -0.06813591669969629
1.4289625247774695 1.0454217378260435 1.8744488050956787 1.0679787212608636 -0.18758180978726235 -0.010008039833722768 1.5894347610853345 -0.03909308605563113
0.6504623650688823 0.7774653182531914 1.0650573293609182 0.9442886375368048 0.11550428421922282 -0.06962971741692228 0.612852025717343 1.4695998800824337
-1.0785028951805096 1.2809596778031838 0.8493618990215817 0.4593159245378379 1.0901930214199038 1.6006383913082882 0.5041821558806533 0.5853853526043923
2.0186352059777746 0.45106117996940165 1.5736265036840873 0.5523983988591806 1.3988997325247692 0.8646252603858792 1.1318262930205585 2.1028761246450243
-0.14710095573822338 1.0836693653292582 0.7899802888985501 -0.17923423476737763 1.4516206276266066 0.8368260488944056 0.0687053775546511 -1.0085264344336335
1.9087975345426496 1.5288987126994196 0.5056834876263003 1.5737077856987194 1.1627893408225454 1.5844625649476523 2.1445228141390813 2.332668222497234
1.4313933614059282 1.4990349576424502 1.016087758433612 1.8558442955528238 -0.03228762937388594 0.7126768599365575 0.6565886218478896 2.0784949623806988
2.0216631712356716 0.5095931568122185 1.0271062070882901 1.8931601907218913 -0.7171886468686052 0.9160906490539237 0.642465191425982 0.7974956019123104
2.7040957191605677 0.6213643480464431 0.8702804992611226 0.4401844558644855 1.5364600987529016 1.7357863990426732 0.4350357681202803 0.5093462470286837
0.37826669123447926 1.1628234863422415 -0.49636873943503607 0.7666517461813732 0.4483585985561228 1.1993462788768978 0.2281310252105728 0.2862557200524325
1.450817316881333 1.0058977496454296 0.8044520006497575 1.3563140843285295 0.6289483429166266 1.3996590866935739 0.5404424052168535 2.005221611909381
00000000: 4734 b154 cc48 ef3f f99c b2ea 9130 f43f
00000010: b334 9d22 ada2 f73f 2310 32dc 3bdb d5bf
00000020: e759 9f1c 83e7 ec3f 6c1a da38 3605 dbbf
00000030: f5d9 4559 b757 ea3f 1e12 b838 8a94 fa3f
00000040: db87 9acd 5803 f23f 5faf e085 7b73 f03f
00000050: fabd 69eb e2a5 b63f 28f4 e0e0 8313 fa3f
00000060: 79c3 5e9a bb83 d8bf b389 2d69 4c3b c93f
00000070: a3ae 395e 7801 0140 60ab aa4c 02a1 f63f
00000080: 1cc2 0b29 c9da e93f 18b8 73a5 5770 cfbf
00000090: f97e f9ee 4a78 f83f 4f5e 7c13 3a27 98bf
000000a0: aa36 f7a3 f4e0 ef3f ba15 f719 e851 acbf
000000b0: a01c 055a 6ab7 eb3f 9d1e 3bcd 178f f53f
000000c0: 4ba9 66a7 8dc1 f03f 1f6d 8c32 3470 fe3f
000000d0: 4c35 f347 8219 ed3f 1f9e 2bd4 4629 c6bf
000000e0: 9ab5 647d 277a 0440 73e8 078d 295b fa3f
000000f0: 3285 3c4a fdbc f93f 367e e8fd 5a71 b1bf
00000100: a70f f2ce 07dd f63f 72d8 e724 0cba f03f
00000110: 7298 be07 befd fd3f 9c3a 0adb 7016 f13f
00000120: 302e 2e45 ae02 c8bf 7863 435e 187f 84bf
00000130: 1acb df24 536e f93f e3a0 374c 0204 a4bf
00000140: 3cfd 2773 96d0 e43f 7a7e 75f2 fee0 e83f
00000150: 1f86 df8d 790a f13f 278f 06ce 9c37 ee3f
00000160: bcfa 4453 b091 bd3f c2a9 22cf 40d3 b1bf
00000170: 6fc9 f7d9 7b9c e33f 9e8d f229 7b83 f73f
00000180: d010 7740 8c41 f1bf c98c 3a93 cf7e f43f
00000190: 4884 5801 f92d eb3f 5702 9b9e 6e65 dd3f
000001a0: f236 d53c 6e71 f13f 2542 7600 379c f93f
000001b0: 677e d79d 4222 e03f 0fc9 1f10 7abb e23f
000001c0: 83d4 0137 2a26 0040 16ae 1db6 2fde dc3f
000001d0: 5812 17fc 922d f93f 71d0 2e68 3fad e13f
000001e0: 853b 99af e461 f63f 07e4 1498 02ab eb3f
000001f0: 5d6b 14e3 f51b f23f e61d b7b7 b0d2 0040
00000200: d591 0d41 34d4 c2bf 8542 3cb0 b556 f13f
00000210: 96b9 29be 8447 e93f ef21 53bc 25f1 c6bf
00000220: 2faf 1d8d d639 f73f e327 0e6c 47c7 ea3f
00000230: 3f14 a8f5 ac96 b13f ffb3 509d ec22 f0bf
00000240: debc 9848 6f8a fe3f 510c 1f7f 5e76 f83f
00000250: 066e 2f23 8f2e e03f d195 1037 e82d f93f
00000260: 1086 effe c89a f23f abfb 226b f559 f93f
00000270: a306 c293 fb27 0140 425a 00f5 4da9 0240
00000280: 1433 afb9 fce6 f63f 3e29 6a14 0cfc f73f
00000290: ba69 c53c e541 f03f 6ee1 bdc9 89b1 fd3f
000002a0: add1 7310 0188 a0bf 3f64 c1b3 3fce e63f
000002b0: 8e65 3824 c602 e53f 589b 82f7 c1a0 0040
000002c0: fde0 9fbd 5d2c 0040 9cc3 d84e 964e e03f
000002d0: ab67 0feb 066f f03f 97d5 1357 624a fe3f
000002e0: f19e eb9a 35f3 e6bf dd74 3b56 9d50 ed3f
000002f0: 6ec6 3f29 138f e43f c559 1d7f 1585 e93f
00000300: cb62 b8ef fca1 0540 9150 387c 37e2 e33f
00000310: d289 557d 56d9 eb3f 3650 896c fb2b dc3f
00000320: d30a 3c2f 5795 f83f 9ead 8bf5 c7c5 fb3f
00000330: 8fad 2a43 a0d7 db3f 5983 2a80 904c e03f
00000340: 7d2a 017f 8535 d83f 24c5 cdcc ec9a f23f
00000350: 9d55 a863 81c4 dfbf 39a6 283e 6988 e83f
00000360: c273 6b43 e8b1 dc3f 6cb0 45b9 8530 f33f
00000370: 07be 3dbe 6533 cd3f a0c2 fa82 0352 d23f
00000380: da9c 0738 8c36 f73f c98d 1d3d 2818 f03f
00000390: 64c2 3f1f 12be e93f 39b9 b465 76b3 f53f
000003a0: e568 7646 5820 e43f bc5e 2eed 0065 f63f
000003b0: 18e5 f8de 4d4b e13f c910 e3a0 b10a 0040

linear_decode.bias f8 [784]
-12.115444012530238 -12.63422894993488 -12.604413076443585 -12.015767312839264 -12.63841767896878 -12.04106063965318 -12.529480912827026 -12.659856813473334
-12.246844696805748 -11.768390439257379 -12.620756636801245 -12.492829355579318 -18.662223605066547 -20.612197973369668 -16.598876774398445 -15.176472328006655
-12.817451894941538 -12.481619552127649 -12.181115399524627 -12.580560898710727 -12.265613831255102 -12.328775669346145 -12.371093120176935 -12.747026594807087
-11.839406243605572 -12.06769428457163 -12.284129918821241 -12.243540386955972 -12.567476965223923 -12.693077696077633 -12.102162858403318 -12.45885025064283
-12.778050733963404 -11.7216234666151 -11.798755341722854 -8.683659719511555 -9.85564491669423 -9.277038519721831 -5.9129048887699085 -6.586207115262452
-7.166817852194924 -9.000687211649486 -9.673193964845543 -9.442010132018694 -10.895585171033188 -14.43083479684323 -13.630502534361609 -11.914862773502788
-9.829023574559526 -12.576063016253798 -16.060244276850835 -17.41704844776645 -12.45382235328074 -12.039997894132577 -12.279025171014496 -12.06265543808823
-12.452481936082508 -12.507902866140054 -12.209178689329601 -12.708978803434935 -14.059887512354456 -8.526032616683777 -5.444726478873274 -7.9615863795775095
-11.522267490375132 -8.07078926931321 -8.696650806503495 -4.280496364897705 -9.052273358197926 -7.822934535597029 -7.121110025663767 -6.25157307605672
-7.024837629578282 -4.215945540356309 -9.833806571294518 -5.086381789878935 -5.528386836803543 -9.493807340340378 -11.561216291009773 -11.819060074056047
-5.104685575570362 -6.8606778201180845 -12.180013809417312 -12.133556707567129 -12.355461599298277 -12.242771740729465 -13.591764134808924 -9.312108947629715
-13.281467129535194 -13.576356724996591 -10.445290134995034 -5.796935745294142 -6.732111073237983 -5.350812922595765 -7.665071054134508 -6.371599059994387
-3.2384875679849237 -3.9201535165337105 -5.504077211969902 -3.846080885625786 -3.55701759439862 -7.34533686665078 -6.166068176845478 -4.028031574254828
-4.096681763694124 -6.6187584804769655 -4.646196223278403 -5.12597323730808 -5.893966345660899 -9.29520366844474 -10.853489820287049 -12.314706422309557
-12.134498273733787 -14.007718344809922 -21.239297603233734 -20.580662566180315 -17.114902989741967 -9.010806017066715 -5.3701087151967455 -9.50457160033873
-2.9752119792941447 -6.139126901127744 -6.926741064520805 -2.3451687715490768 -3.289274651320166 -1.071889452495233 -2.2733874678380226 -4.806191948858674
-3.371297437119653 -4.162158268109752 -4.297673565732338 -4.1635204942689095 -4.456839371443845 -8.192636956237754 -6.805374383965132 -7.720301531372452
-9.812797214343226 -6.765870103372375 -10.039244265368579 -21.159932659632144 -11.854838088945346 -12.193430712005334 -19.245600221010672 -15.710144901530505
-8.14490078969776 -4.86225450533192 -1.8414266014759564 -6.054147393153595 -0.4821134067296923 -3.245667800191007 -1.0795282261032468 -2.265570274903283
-5.3616369161694495 -2.4028934796377954 -4.546916382122026 -5.01583598717863 -4.619785657552917 -3.4376773426955207 -2.7455108107487565 -2.5253744506362987
-0.22362039687706456 -4.149454148840038 -2.5352848957969436 -2.8321718022093485 -0.6343500953723769 -12.767090587166658 -6.256229615783957 -20.62085222969069
-12.560736294663503 -15.33800629929877 -18.35590598716644 -14.240254623921988 -3.2033277933782203 -6.779077555882519 -3.9505359702888856 -7.066811325795591
-3.4908312551620577 -5.708160036127866 -5.377357576636195 -3.5527640422610736 -3.931019189283043 -2.744807909134085 -2.265726278969329 -4.496241314856926
-3.6516108189118657 -2.170353282591044 -0.471564569343851 -0.325948831968799 -6.1117365676964885 -4.487519224463261 -4.227911149219334 -3.92569166047232
0.7577200681059895 -8.015457912128594 -9.929369202342766 -14.40689685082206 -11.964069179317681 -19.060340325990325 -17.826786654257393 -6.394116247971823
-5.159283050665483 -5.850770773786925 -3.9397076797290445 -5.09928880576509 -2.4703499893734353 -1.7902798957908266 -4.174097737683981 -2.9550119747570345
-2.2450277670391268 -2.097042514640964 -2.6251681288482116 -1.7720135176084468 1.0428388074306156 -1.5276875249193695 -2.555277099367966 -0.6731739839832537
-1.646299368119313 -4.653895253478556 -1.7397460600653627 -2.308985473382633 -4.556015864482942 -6.04535680452218 -3.31262626542221 -11.39942383632821
-14.878670590568603 -3.8666949690193295 -9.780031941365637 2.081762335320433 -4.223050375844651 -3.0245534777749086 -3.0711234704912744 -4.829033908453892
-7.392218086549159 -2.5581885673566647 -3.3348240272445246 -3.0422042642597633 -2.7087315127145097 -1.5543243447002772 -2.021906588179549 -0.6001501020997304
1.3979918320144051 0.7541223990675324 -2.1756773072307176 -0.01063622714991406 -1.492966587287719 -4.201561407698023 -2.5118458521543414 -3.4638432199877873
-5.522618715275246 -7.632169333718318 -0.5587054221190328 -11.316282394754875 -15.386396064051207 -8.469586291289284 -6.070965390245486 -2.9372983105056587
00000000: 3bac 447a 1b3b 28c0 204b 2ca8 b944 29c0
00000010: 2c33 79a1 7535 29c0 1bfb 39a7 1208 28c0
00000020: e1b7 98ae de46 29c0 2fed 70e6 0515 28c0
00000030: 88e5 481f 180f 29c0 4dd2 93c0 d851 29c0
00000040: 86f1 976d 627e 28c0 cb56 be78 6a89 27c0
00000050: 2fac 5bd0 d33d 29c0 a071 1921 54fc 28c0
00000060: 6966 767c 87a9 32c0 da4c a201 b99c 34c0
00000070: 1360 00fd 4f99 30c0 09e0 ba94 5a5a 2ec0
00000080: 7ea7 050e 89a2 29c0 3d01 83d6 96f6 28c0
00000090: 3f85 5b28 bb5c 28c0 0f99 3247 3f29 29c0
000000a0: 3c36 3d89 fe87 28c0 d91f d748 55a8 28c0
000000b0: 6fdc ddea ffbd 28c0 9be0 1345 7a7e 29c0
000000c0: 33b0 b8a7 c6ad 27c0 f8b8 44d3 a822 28c0
000000d0: 034e 0a7a 7991 28c0 5176 5a53 b17c 28c0
000000e0: 7bbd 3d57 8c22 29c0 1e7b 6c14 db62 29c0
000000f0: 906a afb0 4e34 28c0 728b 886b eeea 28c0
00000100: d400 72aa 5c8e 29c0 a846 8aa1 7871 27c0
00000110: f168 cc75 f698 27c0 11ca 91a5 085e 21c0
00000120: 7761 2c17 17b6 23c0 02e0 2bfe d78d 22c0
00000130: 4880 068a d0a6 17c0 5ef0 92ad 4658 1ac0
00000140: c043 8e4c d2aa 1cc0 b51e ff12 5a00 22c0
00000150: 9bc0 1de1 ac58 23c0 b80a eb26 4fe2 22c0
00000160: 7fbd b823 8aca 25c0 49d7 e460 96dc 2cc0
00000170: a741 6a3a d142 2bc0 6f0b b9e4 68d4 27c0
00000180: 3fb1 28c7 75a8 23c0 887d 4ebb f126 29c0
00000190: 73d8 3e2b 6c0f 30c0 2501 e4af c36a 31c0
000001a0: af11 4b67 5be8 28c0 a56a 9e9a 7a14 28c0
000001b0: 4089 2063 dc8e 28c0 d102 a35f 1420 28c0
000001c0: a102 5bb6 abe7 28c0 7e3b 2fd8 0b04 29c0
000001d0: ae61 1b78 196b 28c0 da9e 0c45 ff6a 29c0
000001e0: 9b00 7693 a91e 2cc0 7f92 aa25 540d 21c0
000001f0: 2bb4 c960 66c7 15c0 fe41 9219 aad8 1fc0
00000200: b2d9 fda4 660b 27c0 4837 b97d 3e24 20c0
00000210: 3e54 1d6a af64 21c0 b587 6770 3a1f 11c0
00000220: 0ad3 d792 c31a 22c0 818d d459 af4a 1fc0
00000230: 3fc6 3d44 047c 1cc0 f5de 585f 9c01 19c0
00000240: dbfe 1a09 6f19 1cc0 8830 e6d3 20dd 10c0
00000250: b9cc e5b1 e8aa 23c0 f8ff c977 7458 14c0
00000260: 1ad5 5e70 111d 16c0 c692 d250 d4fc 22c0
00000270: 21bd dfbd 571f 27c0 640f 8fd7 5ba3 27c0
00000280: 25c0 0db2 326b 14c0 f032 c786 5571 1bc0
00000290: 2d8d 20c5 2a5c 28c0 1353 768b 6144 28c0
000002a0: 9ef0 0f10 ffb5 28c0 efa6 dd93 4c7c 28c0
000002b0: 6fe6 6bb5 fb2e 2bc0 9bb7 75be cc9f 22c0
000002c0: 5c81 a875 1c90 2ac0 4b61 893a 1827 2bc0
000002d0: f811 8e11 fde3 24c0 f834 8cec 0f30 17c0
000002e0: eb62 7286 aeed 1ac0 8040 b680 3b67 15c0
000002f0: 8818 ec62 08a9 1ec0 d799 c776 847c 19c0
00000300: 8bfb 872b 6ce8 09c0 537e 6672 795c 0fc0
00000310: 4247 10d1 2c04 16c0 8b44 2c0e c6c4 0ec0
00000320: cae8 f9a3 c574 0cc0 0d79 d1fc 9f61 1dc0
00000330: a8d4 b1c6 0daa 18c0 33b8 1a4f b41c 10c0
00000340: 53be 548b 0063 10c0 bb15 b7d2 9b79 1ac0
00000350: 291e 7776 b495 12c0 47a3 d920 ff80 14c0
00000360: 4f5a e9e9 6b93 17c0 3f42 6bef 2497 22c0
00000370: 1e34 239e fcb4 25c0 4952 3f33 21a1 28c0
00000380: 321c 2ef5 dc44 28c0 6313 ada8 f303 2cc0
00000390: 6be6 939b 423d 35c0 82c1 4b4d a694 34c0
000003a0: 8527 4748 6a1d 31c0 99cd c35d 8805 22c0
000003b0: 3bf0 6ec7 fd7a 15c0 f5e3 7335 5702 23c0
000003c0: e1e2 2df0 3bcd 07c0 9659 4948 778e 18c0
000003d0: 89e8 0f9c fbb4 1bc0 f13a 4bd8 e7c2 02c0
000003e0: f7da 773a 6f50 0ac0 584f f68d 7526 f1bf
000003f0: 2501 ccc4 e52f 02c0 0796 da61 8a39 13c0
00000400: e523 6cca 6af8 0ac0 c33a 29d1 0ca6 10c0
00000410: ffd0 d656 d130 11c0 6171 9cea 71a7 10c0
00000420: 8c81 3fb3 cdd3 11c0 9315 a64f a162 20c0
00000430: 62aa 0010 b438 1bc0 7b03 82b9 96e1 1ec0
00000440: a3c4 dbf4 26a0 23c0 bcdf 9b40 4010 1bc0
00000450: 8fa0 08d3 1714 24c0 afae c658 f128 35c0
00000460: 72ca 8656 adb5 27c0 b635 ac59 0963 28c0
00000470: 9721 f5a7 df3e 33c0 44fd ce1c 986b 2fc0
00000480: 39d5 b16f 304a 20c0 c2ea 54d8 f272 13c0
00000490: b42d 75bd 7b76 fdbf 8c08 0b6a 7237 18c0
000004a0: ca7f b730 f2da debf 4e01 fcad 20f7 09c0
000004b0: b38e a363 bf45 f1bf a1fe eb4e e31f 02c0
000004c0: 75e5 9ff2 5072 15c0 1d87 7637 2039 03c0
000004d0: 6671 1bd9 0a30 12c0 dd20 1c4f 3710 14c0
000004e0: e8e0 6617 a97a 12c0 9c9e 88fa 5c80 0bc0
000004f0: c4d7 375f cef6 05c0 4f18 1d85 f733 04c0
00000500: b31b a7d9 979f ccbf f213 2682 0a99 10c0
00000510: d5ec 8b72 4348 04c0 e823 99b0 49a8 06c0
00000520: c6d7 3a92 984c e4bf 85e6 f118 c088 29c0
00000530: 273c 700e 6106 19c0 922b f62b f09e 34c0
00000540: 1a85 ded3 181f 29c0 11a9 6229 0fad 2ec0
00000550: 9954 9fa7 1c5b 32c0 5aea 70a7 027b 2cc0
00000560: 1d6b 7752 6aa0 09c0 8b40 be81 c61d 1bc0
00000570: c77f 509a b29a 0fc0 882d 2d30 6a44 1cc0
00000580: 9234 e6ef 38ed 0bc0 7203 8ee7 27d5 16c0
00000590: 7a33 4a06 6a82 15c0 1e54 df8d 0f6c 0cc0
000005a0: 535a 4f30 ba72 0fc0 a843 5cd9 5df5 05c0
000005b0: 69e3 6e19 3520 02c0 2af0 e8ae 26fc 11c0
000005c0: e791 a7bb 7f36 0dc0 4ff5 8b2e e25c 01c0
000005d0: bf2f d228 1d2e debf ce6c 5e7d 58dc d4bf
000005e0: 4718 2012 6b72 18c0 c6f6 543d 38f3 11c0
000005f0: cc29 518a 61e9 10c0 b644 7f07 d167 0fc0
00000600: 4238 0128 3e3f e83f 0f1d 7619 ea07 20c0
00000610: 8ef1 b347 d6db 23c0 9540 b6c8 54d0 2cc0
00000620: 8380 b879 9aed 27c0 28c2 ae76 720f 33c0
00000630: 05ce 484a a8d3 31c0 e071 af35 9393 19c0
00000640: 54a9 9518 1ba3 14c0 d63a 2774 3067 17c0
00000650: ebe3 c175 8584 0fc0 d67a f6f6 ab65 14c0
00000660: 4843 f0da 46c3 03c0 e9b9 3188 fca4 fcbf
00000670: 22a4 66ad 46b2 10c0 6ff5 7651 dda3 07c0
00000680: 125c 301e d1f5 01c0 e7a2 d539 bec6 00c0
00000690: 963c df25 5800 05c0 d32b a3d8 2a5a fcbf
000006a0: 4da0 cebe 77af f03f f492 6079 6871 f8bf
000006b0: 7706 b01e 3571 04c0 3b3c b72a a48a e5bf
000006c0: 75f7 9701 3e57 fabf d4cc a2b7 969d 12c0
000006d0: 9835 f5f6 ffd5 fbbf 9df0 3860 cd78 02c0
000006e0: ad0b 0839 5c39 12c0 9a4b a003 722e 18c0
000006f0: 3fdf 0e33 4280 0ac0 888b f447 81cc 26c0
00000700: f8e5 941c e1c1 2dc0 b45d 9cc5 fdee 0ec0
00000710: 6900 bc58 608f 23c0 7ef7 e102 73a7 0040
00000720: 0174 5651 67e4 10c0 d05e 0018 4932 08c0
00000730: 84e7 9d2e a991 08c0 8d56 d043 ee50 13c0
00000740: 6a83 3a9e a191 1dc0 3d62 4e91 2b77 04c0
00000750: 2571 3738 b8ad 0ac0 bafa 7530 6f56 08c0
00000760: 0507 666d 7bab 05c0 43d4 3d34 83de f8bf
00000770: 8462 7e5c dd2c 00c0 6eb3 a6fc 6d34 e3bf
00000780: 603b e9ae 2c5e f63f b7a2 254c c521 e83f
00000790: 68a4 0981 c967 01c0 75fa 173e 72c8 85bf
000007a0: 64be a6ee 30e3 f7bf 80cb 181d 66ce 10c0
000007b0: e9c4 5ca3 4218 04c0 118d 226f f3b5 0bc0
000007c0: f389 495c 2917 16c0 ca6a d765 5787 1ec0
000007d0: 002c 8331 eae0 e1bf a68b 1bc4 efa1 26c0
000007e0: 5dce 74b4 d5c5 2ec0 8d79 479d 6df0 20c0
000007f0: 4b02 b926 ab48 18c0 2cbe b141 967f 07c0
