TME/rnn_classif_sequence_tme4/savenet/rnn_pred_temp.model (torch_old, 2176 bytes, 6 tensors)

Wh.weight f8 [10, 10]
000000 aa 8f f8 8f 96 63 cc 3f 7b fe 88 ff 30 ec 81 bf
       0.22178918866950187 -0.00875128059226359
000010 b6 8f f8 0f 61 ab ce 3f 41 80 3b 80 6f 01 97 bf
       0.23960507659751124 -0.022466413690267698
000020 5e df 0e 20 c7 d1 b1 bf e0 05 b8 03 58 2b 5d bf
       -0.06960720570247989 -0.0017803535000669932
000030 98 b7 03 58 f4 9a d2 bf 4a 70 07 b0 99 19 cd bf
       -0.2907076701657103 -0.22734376044434362
000040 92 8f f8 4f cd 10 c4 3f 66 70 07 b0 db 0c ca bf
       0.1567627563937291 -0.20351739974182975
000050 4c ea 07 70 36 44 de bf ef a9 1f c0 9a 1a b8 3f
       -0.47291336956519525 0.09415595236320205
000060 80 ea 07 60 18 2f d2 bf 74 ea 07 70 34 71 d1 bf
       -0.2841244638254139 -0.27253447475928927
000070 6c ea 07 c0 05 62 d7 bf 8a ea 07 f0 88 28 db bf
       -0.365357816248127 -0.4243490547229746
000080 56 d5 0f 60 dd 04 cb bf 3c 59 81 ff fc 7c 93 3f
       -0.211085960297775 0.019031479925922343
000090 3f 56 e0 3f 6c 57 b5 3f 6c ea 07 90 ea 76 dc bf
       0.08336521682243701 -0.4447580725242577
0000a0 d2 d9 c9 eb 96 63 c1 3f b0 d9 c9 cb 0c b7 c5 bf
       0.1358517314253747 -0.16964874220475457
0000b0 d3 b3 93 d7 af 4f b6 3f d9 12 1b 2a b5 40 d1 bf
       0.08715342534169616 -0.2695744429768588
0000c0 44 26 36 d4 8c 40 ce bf a8 d9 c9 2b 68 19 c0 3f
       -0.23634491311922734 0.12577535760983705
0000d0 1f 13 1b 6a 37 79 d0 bf d7 12 1b 8a ec e5 d1 bf
       -0.25739846574679065 -0.2796584461869264
0000e0 fc 25 36 f4 61 0a c2 bf 8e d9 c9 ab 58 e3 c6 3f
       -0.14094185280218585 0.1788130606470983
0000f0 82 e4 d2 5f 25 d2 cd bf 63 c8 a5 bf d3 bf b7 3f
       -0.2329756467713971 0.09277079991241659
000100 70 e4 d2 3f b6 58 c9 bf 0b 8e 16 70 b0 03 d1 3f
       -0.19801977268597026 0.2658501715288543
000110 0b 8e 16 f0 8a 53 d1 3f c1 37 5a c0 b9 eb b4 3f
       0.270724043332138 0.08172188707450713
000120 94 91 4b 7f 80 20 a9 bf 09 38 5a 40 3d eb b3 3f
       -0.04907609514137615 0.07780821629623359
000130 86 91 4b 7f 53 d7 ad bf f5 de 68 01 0d c5 90 3f
       -0.058283433236087354 0.016376689158476194
000140 b6 08 b2 68 a5 9d c5 bf f8 f6 4d 37 bb 8c c9 bf
       -0.16887347805101677 -0.1996072788278338
000150 f6 03 59 d4 fc 49 d3 bf 3c dc 37 5d 5b ea af 3f
       -0.3013908456524058 0.06233487618367703
000160 ee fb a6 cb 06 67 d1 3f f6 03 59 b4 a0 8c d0 bf
       0.2719132412711919 -0.2585832368095561
000170 00 f7 4d d7 bb 3a c1 3f 34 f7 4d 17 22 93 cf 3f
       0.13460491192739 0.246677647952248
000180 97 08 b2 88 31 58 c6 bf 22 fc a6 4b 2c 34 d0 3f
       -0.1745664517839642 0.25318438899916107
000190 79 68 dc d5 9a d4 d3 3f 63 97 23 aa 28 e6 d0 3f
       0.30985136875973 0.26404778113498234
0001a0 c4 2f 47 d4 9a 1b c9 bf b3 5f 8e e8 49 13 bc bf
       -0.19615493168964637 -0.10966932227745367
0001b0 b0 2f 47 14 28 f4 ca bf c4 2e 47 14 7a f0 cf bf
       -0.21057606687679487 -0.24952627172603148
0001c0 0d a0 71 d7 0a 80 b5 3f ea cf b8 ab 7a 1b ca 3f
       0.08398502120837766 0.2039635981069517
0001d0 b7 5f 8e 68 f0 1a b3 bf 03 d0 b8 ab a8 ac cb 3f
       -0.07462980797424633 0.21620663056239672
0001e0 01 20 36 c0 2c f0 cd bf 8d df c9 bf 80 48 cd bf
       -0.23389205346416023 -0.22877511372257367
0001f0 f1 df c9 ff 9d 17 cf 3f 8d 06 9e fc 73 a7 8e 3f
       0.2429082392661708 0.014967828890579038
000200 e1 3e 6c 80 2c d9 bd bf c4 0f 1b 80 52 77 d1 bf
       -0.11659505973170382 -0.27290785322497535
000210 03 20 36 40 cc 87 cc bf e8 0f 1b 20 89 a3 d2 bf
       -0.22289422164271863 -0.29123142371486077
000220 7e 03 4f fe 0f 64 99 3f 14 7f d8 80 cb 75 a9 bf
       0.024795770546691902 -0.04972682903121331
000230 3f 80 f2 d4 7e 99 b2 bf ff bf 86 15 f9 7d c6 bf
       -0.072654654492454 -0.17571939040271897
000240 07 c0 86 75 9a 43 c4 3f be 5f c3 1a af 41 d1 3f
       0.15831309069244545 0.26963403333274616
000250 e0 5f c3 da 97 33 d0 3f 58 a0 3c 85 f5 ea d1 bf
       0.25314899791328394 -0.27996576320083966
000260 07 c0 86 35 ff 15 c2 3f f7 bf 86 35 a3 d0 c9 3f
       0.1412962924346177 0.20167961228935358
000270 38 40 79 4a 08 11 c4 bf be 5f c3 da 4c c4 d4 3f
       -0.1567697871819307 0.32448121417609943
000280 ba 64 34 7b c3 21 cf 3f 0f 32 9a 3d 06 36 d4 bf
       0.2432178832612289 -0.3157973863206118
000290 fe 6b 2e 93 01 6c ab bf ae 9a cb 84 f5 b0 c7 bf
       -0.05355839654585991 -0.18508786186358378
0002a0 0b 36 97 49 b6 e9 b4 bf 0f 32 9a bd ff d9 d1 3f
       -0.08169116303107431 0.2789306022248476
0002b0 ad cd 65 c2 b7 b1 d2 bf 95 ca 68 f6 35 f3 b3 3f
       -0.29209703430316375 0.0779298521600061
0002c0 b1 94 d1 ec 9f 68 aa 3f 8a 9a cb 44 bd d4 cf bf
       0.05157947316983192 -0.24867978915354555
0002d0 31 ea 3f 7e 8f 1c 85 3f 1f 01 1c 08 69 7a c5 3f
       0.01030838111909302 0.1677981652828828
0002e0 11 01 1c c8 8c b2 c9 bf dc 01 38 50 98 6d bc bf
       -0.20076141138998385 -0.11104728659120816
0002f0 82 fd c7 6f 0f c7 b4 3f c2 ff f1 fb 9b 61 d4 3f
       0.08116241911920066 0.3184575996783644
000300 47 f5 1f bf bf a8 98 3f 0e 01 1c 08 58 b7 c2 bf
       0.024081226387342693 -0.14622021099058496
000310 f9 fe e3 b7 b7 c4 c8 3f c6 ff f1 fb be 07 d7 3f
       0.19350334624322565 0.3598477802661332

Wh.bias f8 [10]
000000 f3 2c c3 e3 f6 02 21 c0 56 87 e4 17 98 42 25 40
       -8.505789868903298 10.630066630026402
000010 54 81 34 b8 45 79 21 c0 98 fe 61 1c 23 77 21 c0
       -8.736860042962384 -8.732689749681683
000020 f7 86 b8 2e fe c2 1f 40 ac 0d 07 9c 48 c6 21 40
       7.940422754299781 8.887272716389667
000030 06 75 9b eb 81 ee 20 c0 e0 2c 01 12 8c cf 1d 40
       -8.465834963537883 7.4526827634065
000040 a3 20 4f fb 54 8b 20 c0 0b 28 76 9e 91 98 21 40
       -8.272132733735196 8.797985984729186

Wx.weight f8 [10, 1]
000000 e8 4e fc b9 38 63 d8 bf 59 6c 7b 94 88 27 dd 3f
       -0.381056005121748 0.45553793430525996
000010 50 81 df 87 56 9c e6 bf b4 cc f3 93 e0 eb ce bf
       -0.7065842298289144 -0.24157340263591254
000020 b0 ad 75 80 30 c1 e9 bf c0 85 26 f7 ba a7 c6 bf
       -0.8048326977708964 -0.17699372356314136
000030 d9 9c b9 fc 5c 92 e6 bf 7e c1 e1 ae 87 e4 eb bf
       -0.7053666053806423 -0.8716467300092032
000040 54 07 a3 46 6f 2c e4 bf 57 72 ce 33 f3 75 c5 bf
       -0.6304241542459104 -0.16766204862223574

Wx.bias f8 [10]
000000 3e 5a 86 6b 73 ea 1f c0 74 87 e4 06 d1 ba 26 40
       -7.97895591743014 11.364875998875256
000010 78 81 b4 ad b7 c8 22 c0 9a fe 61 85 c4 85 21 c0
       -9.392026356014625 -8.761264961445068
000020 0b 87 b8 aa e2 03 1d 40 c0 0d 07 33 7a e3 22 40
       7.253794353020349 9.444291681872414
000030 2c ea 36 51 3d 11 1e c0 64 96 00 65 6c c3 20 40
       -7.516835469223718 8.381686359712326
000040 89 40 9e 6e a6 aa 1f c0 ed 27 76 14 b2 f1 23 40
       -7.916650513085309 9.972061767028174

Wo.weight f8 [1, 10]
000000 9e f9 54 e7 6d c0 ea bf ff 17 ff 36 26 03 e6 3f
       -0.8359899061395486 0.687884433188401
000010 1d 01 1a 71 b5 6f e4 bf c0 ed 0d 15 1d e4 f0 bf
       -0.6386363228812432 -1.0556917974889615
000020 5d 72 c3 6f d9 bf e0 3f 25 bd 1d 47 00 7a 09 40
       0.5234191115265038 3.1845708423567367
000030 16 27 68 f2 b0 0e e2 bf 41 24 25 eb 84 f2 d8 3f
       -0.5642933592327803 0.38980219806086686
000040 5a 4b d4 7e e4 57 e3 bf b6 9c 4b d3 b8 53 0b 40
       -0.6044790722975038 3.4158798701715467

Wo.bias f8 [1]
000000 ac b6 20 c3 e5 10 20 40
       8.033002946608882
